app/src/main/assets/converted_model.tflite (tflite, 32132 bytes, 2 tensors)

MatMul_bias f4 [10]
00000000: 3a40 11be 2722 7a3e d20b dbbc f637 e8bd
00000010: 30ae 713d 751e de3e 8352 eebc a145 713e
00000020: 73d0 13bf 058c acbd
-0.14184657 0.2442709 -0.026739035 -0.11338799 0.05900401 0.43382612 -0.029092079 0.23561718
-0.57739943 -0.08425144

Variable/transpose f4 [10, 784]
00000000: 0000 0000 0000 0000 0000 0000 0000 0000
00000010: 0000 0000 0000 0000 0000 0000 0000 0000
00000020: 0000 0000 0000 0000 0000 0000 0000 0000
00000030: a442 49b6 8e4e 3fb7 db92 b4b6 cbc3 70b4
00000040: 0000 0000 0000 0000 0000 0000 0000 0000
00000050: 0000 0000 0000 0000 0000 0000 0000 0000
00000060: 0000 0000 0000 0000 0000 0000 0000 0000
00000070: 0000 0000 0000 0000 0000 0000 0000 0000
00000080: 089d 79b4 500b 5eb5 ee53 98b7 eeb3 50b8
00000090: 051d 03b9 9cee 5bb9 fd24 d3b9 5cf4 7239
000000a0: 9f3f 743a 5698 8539 3662 fcb9 4df4 0e39
000000b0: 03a5 853a cdd0 9b39 ee7e a2b9 5b74 78b9
000000c0: cbb8 28b9 864e cbb8 2cf9 0ab8 7c69 33b6
000000d0: 0000 0000 0000 0000 0000 0000 0000 0000
000000e0: 0000 0000 0000 0000 499d adb5 bce6 5738
000000f0: 20d3 1d37 258a 08b8 0254 e1b9 0d8f 2aba
00000100: 116d b3ba 15e1 48bb 4a40 94bb fe4a b4bb
00000110: 5bac e3bb 3832 16bc 966e 52bc 5e85 7abc
00000120: 3530 77bc f074 5bbc 4b39 3abc 22e4 1dbc
00000130: 4c4a e0bb 436a 80bb a0e6 07bb e497 5cba
00000140: 6c2b 79b9 b70e e0b7 0000 0000 0000 0000
00000150: 0000 0000 0000 0000 3e0a 62b6 4122 9738
00000160: 7f8d 92b9 5113 04bb 4d8a 5cbb 6702 aebb
00000170: 439a d2bb d60b 58bc 60bb 8cbc dba8 94bc
00000180: 1184 c1bc eaf2 d9bc 76f1 0bbd 6433 1bbd
00000190: 4ebd 26bd 4ee1 40bd cd52 51bd b193 3abd
000001a0: a94e 09bd 657b bdbc 4dcf 74bc 234f e4bb
000001b0: fb1c 31bb e96d 2fba f303 f8b8 0000 0000
000001c0: 0000 0000 641b b7b5 da6b 7fb7 4602 df35
000001d0: bbc4 46ba a946 acbb 22de 15bc d0fc 58bc
000001e0: 77bd a2bc b5e6 d5bc 918e 07bd cbca fdbc
000001f0: 4542 cabc 6929 02bc 8757 b93a 2ace 613c
00000200: 5f79 9ebb 125a 7abc 5142 dbbc 40b9 fbbc
00000210: a1ee eabc 61b5 e5bc 3c92 b9bc 5949 a0bc
00000220: 6024 4cbc f65e 59bb a98f 03ba effe 3db7
00000230: 0000 0000 0000 0000 8589 89b8 f60e 6eb9
00000240: 2d1d 3cbb 4f0a 3cbc 18ec 94bc ca4a f9bc
00000250: 7cb5 2dbd 6419 42bd 8865 13bd 46e2 8abc
00000260: a43e 413c 6d4c 7e3d 6ee9 ba3d eb1b dd3d
00000270: 29eb d83d 8955 cb3d fcf9 813d a2c9 cf3c
00000280: a3d2 62bb 0ed0 31bc 38f0 babc d42f 13bd
00000290: 5180 e2bc bef0 2abc d881 28bb 5f06 9bb9
000002a0: 0000 0000 5b34 2ab5 363c 1ab9 4f3d 8bba
000002b0: 3654 c4bb a716 74bc 6eeb e3bc f931 32bd
000002c0: ab6b 62bd c559 67bd e61f f0bc 44cf a33a
000002d0: 296e 053d f22e 933d 97a5 bc3d 480f e63d
000002e0: 1dfd 0c3e a56a 193e 620b 003e 54a4 983d
000002f0: c26c 2f3d 79ef 0c3d 07ff 763c 74bc e4bc
00000300: 39aa 38bd 2b7e c2bc 691e f5bb 0b78 8aba
00000310: 0000 0000 a10e 7cb8 d5aa d3b9 a416 03bb
00000320: 9b50 2dbc f1fb a5bc 4d1d 12bd 701f 4fbd
00000330: 329f 70bd 768b 11bd d499 3cbc 75ad 833c
00000340: 4c72 0d3d 6297 4c3d c482 893d da5d bd3d
00000350: fa8b 073e 3b1b 2a3e 5726 1d3e 5920 d53d
00000360: 45e4 653d ae4f 373d 9f9b 2f3d a3b8 afba
00000370: f9ec 39bd 230e 09bd 6acd 18bc 1e2f c9b9
00000380: f5ae be39 f79b 22b9 9f9b 99ba e18b 97bb
00000390: 52c3 8ebc 6c46 f4bc ac31 28bd e4d0 46bd
000003a0: 7080 2bbd 74c2 9dbc 7a09 1fba a5ec 5f3c
000003b0: 7292 163d 740e 3a3d b7ac 853d 03c3 bf3d
000003c0: c4c1 103e 7c4e 1f3e 7f5a 183e ba9b e83d
000003d0: a34d a13d be9a 603d 7835 8a3d 0c44 2b3d
000003e0: 4950 fcbc fd01 17bd 1321 13bc 1751 dcb9
000003f0: f466 46b7 ef88 76b9 ba38 e5ba 50ab d5bb
0.0 0.0 0.0 0.0 0.0 0.0 0.0 0.0
0.0 0.0 0.0 0.0 -2.9990124e-06 -1.1402777e-05 -5.3815143e-06 -2.2422971e-07
0.0 0.0 0.0 0.0 0.0 0.0 0.0 0.0
0.0 0.0 0.0 0.0 0.0 0.0 0.0 0.0
-2.324706e-07 -8.2717906e-07 -1.8158895e-05 -4.9758637e-05 -0.00012503944 -0.00020974356 -0.00040272615 0.0002316995
0.00093173416 0.00025481236 -0.00048138358 0.00013633184 0.0010196272 0.00029719473 -0.00030993618 -0.00023694469
-0.00016090569 -9.6944204e-05 -3.3133823e-05 -2.6734479e-06 0.0 0.0 0.0 0.0
0.0 0.0 -1.293528e-06 5.1474883e-05 9.407086e-06 -3.2553584e-05 -0.00042977935 -0.00065063016
-0.001368912 -0.0030651737 -0.0045242654 -0.005502104 -0.0069480366 -0.0091672465 -0.012843749 -0.015290586
-0.015087177 -0.013394579 -0.011366199 -0.009636911 -0.0068447944 -0.0039189174 -0.0020736828 -0.00084149675
-0.00023762666 -2.6709733e-05 0.0 0.0 0.0 0.0 -3.3682586e-06 7.2066214e-05
-0.00027952713 -0.0020153115 -0.003365177 -0.005310345 -0.006427081 -0.013186416 -0.017179191 -0.018146923
-0.023622544 -0.026605088 -0.034165822 -0.037890807 -0.04070788 -0.047089867 -0.051104356 -0.045551006
-0.03352228 -0.023130128 -0.0149420025 -0.0069674416 -0.002702533 -0.0006692098 -0.00011826297 0.0
0.0 -1.3642534e-06 -1.5224296e-05 1.6615456e-06 -0.0007582416 -0.005257447 -0.009147199 -0.013243869
-0.019865735 -0.026110986 -0.033094946 -0.030980488 -0.024689803 -0.007944443 0.0014140465 0.0137820635
-0.004836246 -0.0152802635 -0.02676502 -0.030727983 -0.02867824 -0.02804059 -0.022652738 -0.019566225
-0.012459844 -0.0033168173 -0.00050186604 -1.1324634e-05 0.0 0.0 -6.558284e-05 -0.00022703022
-0.0028703914 -0.011477067 -0.018178985 -0.03043117 -0.042409405 -0.047387496 -0.0359855 -0.016953599
0.01179472 0.062084604 0.091265544 0.107963406 0.10591728 0.09928424 0.06346509 0.0253647
-0.0034610413 -0.010852827 -0.022819623 -0.035934284 -0.027649077 -0.010433374 -0.0025712159 -0.0002956865
0.0 -6.340612e-07 -0.00014709015 -0.001062313 -0.005991484 -0.014897979 -0.027822223 -0.04350469
-0.05527846 -0.056482095 -0.029312085 0.0012497683 0.03257576 0.071866885 0.09211271 0.112333834
0.1376843 0.14982088 0.12504342 0.07453218 0.04282833 0.034408066 0.015075452 -0.027921893
-0.045084212 -0.023741802 -0.007480432 -0.001056434 0.0 -6.0095106e-05 -0.00040372336 -0.0020002509
-0.0105783 -0.020261737 -0.035672475 -0.05056709 -0.05874557 -0.03553339 -0.011511285 0.016073922
0.03453283 0.049949057 0.06714395 0.092464164 0.1323699 0.1661195 0.15346657 0.104065605
0.056125898 0.044753723 0.04287302 -0.0013406466 -0.04539201 -0.033460747 -0.009326318 -0.00038372813
0.00036369977 -0.00015507625 -0.0011719352 -0.004624829 -0.01742712 -0.029818736 -0.041062996 -0.048539057
-0.041870534 -0.019257762 -0.0006066781 0.01366726 0.036760755 0.04542394 0.06527083 0.093633674
0.14136416 0.15557283 0.14878272 0.113578275 0.07876136 0.054835074 0.067484796 0.04181294
-0.030800002 -0.03686713 -0.0089800535 -0.00042022087 -1.182569e-05 -0.000235114 -0.0017488219 -0.006520666
